mnist_model_98.76_91.58.onnx (onnx, 888795 bytes, 15 tensors)

conv1.depthwise.weight f4 [1, 1, 3, 3]
00000000: fc97 ce3d b080 153e 319e bc3d 0d5e 8a3e
00000010: c11a 903e 0f85 083f 342d 353f d742 dd3e
00000020: 0a6a 7d3c
0.100875825 0.14599872 0.0920986 0.2702488 0.28145412 0.5332803 0.707721 0.43215057
0.015467176

conv1.pointwise.weight f4 [16, 1, 1, 1]
00000000: e0ae c2be bf75 90be bd0c c23e 2462 e23e
00000010: bd0d 16be 19e8 47be 7b45 3a3e 19bd a5be
00000020: 073e 903e 097f d73e 45df 7d3e c86d 19be
00000030: c5e4 d63e 8ded 10be 06aa 91be 2884 5e3f
-0.38024044 -0.28214833 0.37900344 0.442155 -0.14653678 -0.19522132 0.18190567 -0.32370833
0.28172323 0.42089108 0.24792202 -0.14983284 0.41971412 -0.14153118 -0.2845003 0.86920404

conv1.pointwise.bias f4 [16]
00000000: d65b 013e e5c1 843e 1fe5 c13e e3bc 263e
00000010: 5c91 a9bd 039b 313d d540 3cbd c6fa 823d
00000020: 0b8d 3f3e 24d8 d73e e27c 863e 12b6 ae3e
00000030: 74c8 8b3e 2677 583e 707c 473d c9ac 043f
0.12632689 0.2592918 0.37870118 0.16282992 -0.08279678 0.04336072 -0.045960266 0.063954875
0.18706147 0.4215709 0.26267153 0.34123284 0.2730137 0.21139202 0.048702657 0.5182615

conv2.depthwise.weight f4 [16, 1, 3, 3]
00000000: 2ba8 e3bd dd55 cfbd d45c fb3d 02b4 42be
00000010: a4a4 b13d b317 823e 5866 283e d65b 6f3e
00000020: ceb8 acbd 5067 d53c 2b70 4f3d 6cb7 9ebe
00000030: fdf5 afbd d680 223e f5c1 3b3e 9d9d 42be
00000040: 872c 043e 72d1 f53c 165a 8bbe c33b 9bbd
00000050: a5d9 c5bd 9f31 003e e43b 613e cbe1 0bbb
00000060: 4236 593e 662c 2abe bd8c 413d ddd7 ab3d
00000070: d23c 2abe 2ad1 62bc e33d 153d 281c 1fbe
00000080: 6ab2 26be c5d9 d63d 2929 78be 6bca 2fbe
00000090: 4c8c f7bc aae7 123e 4b2c f33c 3467 fd3d
000000a0: 7044 3fbd eec9 253d b0c9 d4bd 4d45 cabd
000000b0: 5dba 133d 7419 d63d 61f0 6c3d 18bc 7cbc
000000c0: 67df a43d f5d5 bebd 0678 ec3d fcfd 073d
000000d0: 6fd4 e13d a8e6 7d3d 3ba8 8bbe 9990 2fbe
000000e0: 6069 e53d 5d62 2dbe 4567 82bd fc68 38bc
000000f0: 7c8e 3e3e ddc5 20be 3678 6e3d 0cd6 1ebd
00000100: df13 143d 4454 23be f97c a93c 5bfb d93d
00000110: 0e6f d23d ff71 75be 6db0 793d 9a64 5c3e
00000120: fb7f 583e f436 b5bd ccd3 fa3b d35b a83d
00000130: 119f 8cbe ec99 debd e305 55be 1ad0 56bd
00000140: 43e3 f13d 8f11 873d a236 bdbe 5810 093b
00000150: 467b 05be 5110 05be b6ff e83e b154 b23b
00000160: a5c7 4fbc 5909 52bb 7346 4cbc a27d b8bc
00000170: b962 eb3e 655a dbbd 2af1 88bd d153 59be
00000180: b48a 7c3d 365c 0e3e 87c7 ba3d e616 313e
00000190: 3c3b 8d3b e210 e13d 5cb0 f33d 5eea 8abe
000001a0: afb8 73be 0a6b ea3d 674a 4f3e 9e18 8cbe
000001b0: 6852 463e afba 62bd 7482 1bbe ebbb 2d3e
000001c0: f4e1 b2bd 3619 8f3e 1442 513e 87e8 1cbd
000001d0: 4676 903d d2fd 313e 5c49 4ebe 57e8 143e
000001e0: 6d99 1fbd e690 6a3e e4fc c03d 185d 87bd
000001f0: c51b 4f3d 384f a5be 7c51 943c 7f50 2ebe
00000200: cd95 52bd e241 fd3d eb34 3ebe 0ff9 edbc
00000210: 73db c43d eff5 e03c 8111 dabc 1376 62be
00000220: ed05 2ebe 4623 babc 5b6f d1bd b5bb 4fbe
00000230: 6d94 06be f518 4c3e c116 043e a03e 963e
-0.1111606 -0.10123799 0.12273565 -0.1901398 0.08673981 0.25408706 0.16445291 0.23374876
-0.08433686 0.02605024 0.05064408 -0.30999315 -0.085918404 0.1586946 0.18335707 -0.19005437
0.12907611 0.030007098 -0.27217168 -0.07579758 -0.09660653 0.12518929 0.21995503 -0.00213443
0.21212104 -0.16618499 0.04725336 0.08390782 -0.16624764 -0.013843814 0.036435973 -0.15538085
-0.16278997 0.10490755 -0.24234451 -0.1716706 -0.030218266 0.14346185 0.029684206 0.123732
-0.046696126 0.04047578 -0.10390031 -0.09876499 0.0360664 0.104540735 0.05784643 -0.015425704
0.08050423 -0.09318153 0.1154633 0.033201203 0.110268466 0.06198755 -0.27276787 -0.17145003
0.11201739 -0.16932054 -0.06367353 -0.011255499 0.18609041 -0.15700479 0.05822011 -0.03877835
0.036151763 -0.15950114 0.020689474 0.106436454 0.10275088 -0.23969267 0.06095927 0.21522751
0.2114257 -0.08848372 0.0076546427 0.08220639 -0.27465108 -0.10869202 -0.20803027 -0.052444555
0.11810925 0.06595146 -0.36955744 0.0020914283 -0.13035306 -0.12994505 0.45507592 0.005442225
-0.012681876 -0.0032049029 -0.012467968 -0.022520844 0.45973757 -0.10710601 -0.066866234 -0.2122338
0.061655715 0.13902363 0.09120088 0.17293891 0.00431004 0.10989548 0.11898872 -0.27131933
-0.2380092 0.11446197 0.20243226 -0.2736253 0.19367373 -0.055353817 -0.15186483 0.16966216
-0.087345034 0.27948922 0.20435363 -0.038307693 0.07053809 0.17381981 -0.20145172 0.14541756
-0.038964678 0.22906837 0.09423235 -0.06609553 0.050563592 -0.32287002 0.018105261 -0.17022894
-0.051412392 0.12366082 -0.18574874 -0.029049424 0.09612169 0.02746102 -0.026619675 -0.22115354
-0.16994448 -0.022721898 -0.102263175 -0.20286448 -0.13142557 0.19931395 0.12899305 0.29344654

conv2.pointwise.weight f4 [24, 16, 1, 1]
00000000: f3f3 803c acd6 87bd 92db 31be 7365 9b3d
00000010: e618 d13d 03bc 57be 8575 acbe 9714 a83e
00000020: d800 e3be 52e0 f6be 1b3d a43c ff52 7f3e
00000030: bd38 313c 16b4 673e 9161 5bbe cb45 f83e
00000040: 5ad9 9abb 16da 7dbd 0ff3 31be 89e9 6e3e
00000050: 3265 14bf b262 943e 62fe a0bd 08cf 5d3e
00000060: 82be 8cbd 5ab7 8dbe 31f9 0e3f 06ad 9c3d
00000070: 97b7 373e 43c9 0ebe c846 ec3c e4ca 9cbe
00000080: 3772 c6be 70ac 95bd 9781 063f 1436 9abd
00000090: e2f2 ccbe 3ef0 3dbe a040 173f 1906 99be
000000a0: 77a0 b8be d35c 1f3d 70f6 503e 9978 183e
000000b0: e57d c3be bd64 36bd 13d5 24be 3290 03be
000000c0: 7126 1bbf 8030 dabe 995d 38be 74cc babd
000000d0: fdbb 983b 1d8b 9bbe ea46 0c3f 15c3 11be
000000e0: 43f5 a0be 4a99 2a3e f10f e03e ba35 153f
000000f0: f1fc 67be b440 ddbd 1af7 87bd 3b25 00bb
00000100: 2961 8e3e cdf3 90be ad7f ddbe d81f 4ebe
00000110: 7c58 963e 41b3 a2be dfbe c53d 48bf b2bd
00000120: 5d33 b53e ca32 233f bea7 ecbd cb92 763c
00000130: d3fa 41bd 599d 0bbf 94d8 89bd 9c49 b03d
00000140: 5693 e6bd f636 05be 82a2 343e 7c6d 5b3e
00000150: 53ea 2f3f 82e9 26bf 0f7e 383e 40db c9be
00000160: a8e4 8abd 9138 de3e 84b0 08bf a77f e7be
00000170: aceb 043f 88da 8f3e c062 11be a6e2 bebd
00000180: b8c0 113f b716 b8bd b564 8c3e e77a 7b3d
00000190: 7471 86bd d3c4 e5bc 0bd3 c9bc fa20 88be
000001a0: e670 f6be 49d6 07be 58af 5d3e 2efc 61bd
000001b0: 189f aabd a329 e63e e403 773e b0be d53e
000001c0: 254c 3ebd ecd1 7abe b7b6 17bd 54fa 09bf
000001d0: 1c04 ddbe 9a61 6bbe 0f0f 3dbe 314e ad3e
000001e0: 7f81 53be 2fb1 d7bd 50a7 c9be e208 073e
000001f0: b608 83bc a343 ca3e d8dc 26bf 3c8b 8a3e
00000200: f727 093e cf3e d73d fe3f 4cbf 67e6 263f
00000210: 0f4e 95bd 451f 573e 3c6b db3d 0606 b5be
00000220: 1d27 003e ee22 99be 5dea cf3d 2468 1dbe
00000230: 0bb7 73be f2b4 11be 705b 83be 10ca 74bd
00000240: f550 1a3e d85d ea3e 4534 903e 6a86 3e3f
00000250: f8fe 743d 119c bfbc e925 053e 2f0f d23e
00000260: d9dc 00bf 4f6c 27be 92ef 59bd c3b9 813e
00000270: f026 55bc 9c49 123e 3ee3 493f d579 8d3e
00000280: 6b3a dabe da39 5fbe 8444 a13d 2ba2 bd3e
00000290: 5955 dc3d 7a14 83be 0806 2ebc b322 19bf
000002a0: ee4a 33bf 6d49 c13e 9475 12bf 6339 9b3e
000002b0: 12a8 b73e 0e22 81be c608 d73d 3fb5 66be
000002c0: 07be 81be 7805 0cbf 9866 32bd e77a 67be
000002d0: bdbb 2e3e 41a9 c03e cb60 083e 4a55 29bf
000002e0: 2298 7fbd d8dc 0ebe 5aca 56bb d615 bb3e
000002f0: 4f48 babe a325 763d 24c7 803e 231e fbbc
00000300: 9df0 1d3e 879a e73e 9e15 833d e536 d63d
00000310: 7943 af3d 7728 7ebd 1d66 073f 327d 2d3c
00000320: dc08 763e b889 35bd b2e8 4f3f a822 063e
00000330: c259 1fbe 8c40 7dbe 5018 5c3d 1780 08bf
00000340: 6b28 e83e 07d0 2fbe 4e82 ac3e deab 6e3e
00000350: f471 e9be 279a 9a3c 5cf7 da3d f15e 92be
00000360: de69 593e 9047 11bf 97ca 31bf 4968 a33d
00000370: ad55 30be 0ae6 183f 710e 9ebd d3c8 91bd
00000380: d033 b6be 08b6 05be 5052 63be 93f8 8ebe
00000390: e6e5 273e 3e06 28bc f9df 40bc 431c 2cbe
000003a0: 758c 823e a320 103f 929f 84bd dc64 f43d
000003b0: a643 82be 761e bebd 6edb 743c c0e2 413e
000003c0: 6ed8 8cbd 2d16 823e f8f9 5e3e eafc e33b
000003d0: 4534 0a3c d8b8 85bd 83ec 09be b453 613e
000003e0: 1a7c 613f b227 7a3d a7f0 17be 9c35 97be
000003f0: 74ac a4bc a5ab 923e 9760 2ebe e433 fe3d
0.015741324 -0.06632742 -0.17368916 0.07587709 0.10209827 -0.21067815 -0.3368341 0.3282821
-0.4433658 -0.48218018 0.020048669 0.24934004 0.01081675 0.22627291 -0.21423937 0.48490748
-0.0047256174 -0.06197556 -0.17377876 0.23331274 -0.5796691 0.2898155 -0.0786102 0.21661007
-0.06872274 -0.2767895 0.55848986 0.07650189 0.17941128 -0.13943963 0.028842345 -0.30623543
-0.38759014 -0.073082805 0.5254149 -0.07529846 -0.40029055 -0.18548676 0.59082985 -0.29887465
-0.36059925 0.038906883 0.20406508 0.14889754 -0.38181987 -0.044529665 -0.16096906 -0.12847975
-0.6060553 -0.42615128 -0.18004455 -0.091210276 0.004661082 -0.30379573 0.54795706 -0.14234574
-0.3143712 0.16660038 0.43762162 0.58285105 -0.22655083 -0.10803357 -0.06638928 -0.001955344
0.27808502 -0.28311005 -0.4326147 -0.20129335 0.29364383 -0.31777385 0.096555464 -0.0872789
0.3539075 0.6374937 -0.11555432 0.015049647 -0.047358345 -0.5453697 -0.06730762 0.0860779
-0.11258571 -0.13009247 0.17640117 0.21428484 0.68716925 -0.65200055 0.18016838 -0.39425087
-0.06781894 0.43402532 -0.5339434 -0.45214579 0.51922107 0.28096414 -0.14197826 -0.093205735
0.5693469 -0.089887075 0.27420583 0.061396506 -0.06564608 -0.028047955 -0.024636766 -0.2658766
-0.4813301 -0.13265337 0.2164892 -0.055172138 -0.08331126 0.4495364 0.24122578 0.41747046
-0.046459336 -0.24494141 -0.037039485 -0.53897595 -0.43167198 -0.22986451 -0.18462776 0.33848718
-0.20654868 -0.10531842 -0.39385462 0.13186982 -0.015995365 0.39504728 -0.6518073 0.27059352
0.13394152 0.10510027 -0.79785144 0.65195316 -0.07290279 0.21008022 0.10713813 -0.35356158
0.1251492 -0.29909462 0.10152123 -0.15371758 -0.23800294 -0.14229181 -0.256557 -0.059763014
0.15069945 0.45774722 0.28164878 0.7442385 0.05981347 -0.023389848 0.13002743 0.4102721
-0.50336987 -0.1634991 -0.053206988 0.25337037 -0.013009772 0.14285892 0.7886237 0.27632013
-0.42622694 -0.21799412 0.078743964 0.37037787 0.10758466 -0.2560156 -0.010621555 -0.5981857
-0.7003621 0.37751332 -0.5721066 0.3031722 0.35870415 -0.25221294 0.1049972 -0.22530077
-0.25340292 -0.54695845 -0.043554872 -0.22605477 0.17063804 0.3762913 0.13318174 -0.66145766
-0.062400945 -0.13951433 -0.003277442 0.36540097 -0.36383292 0.060094487 0.25151932 -0.030654019
0.15423818 0.45235083 0.064006075 0.10459689 0.08557791 -0.06205031 0.5289019 0.010588931
0.24026817 -0.044320792 0.8121444 0.13099158 -0.15561584 -0.24731654 0.053734124 -0.5332045
0.45343336 -0.171692 0.33693165 0.2330775 -0.45594752 0.018872334 0.10691711 -0.2858806
0.21231791 -0.5674982 -0.6944975 0.07978875 -0.17220183 0.5972601 -0.07717598 -0.07118382
-0.35586405 -0.1305772 -0.22199368 -0.27924022 0.16396293 -0.0102553945 -0.011772149 -0.16807656
0.25497785 0.562998 -0.06475748 0.119333 -0.25442237 -0.09283154 0.014944894 0.18934155
-0.06877218 0.25407544 0.21775043 0.00695764 0.008435314 -0.06529397 -0.13469128 0.22004586
0.8807999 0.061073013 -0.14837895 -0.29533088 -0.020101763 0.2864658 -0.17029034 0.12412241

conv2.pointwise.bias f4 [24]
00000000: a11b 6dbd 24b8 09bd 7cdc 773d b2ae c23c
00000010: fcde 70bd d7e2 213c e433 a3bd 0a93 1bbd
00000020: 8e41 263d 3ca6 09bb e42a 4a3d 2f67 bd3b
00000030: 505c 6abc 1fa0 0abd e536 233d 037b 34bd
00000040: 4ada cb3c f3b2 893e b53d f93c 0ad1 32bd
00000050: f9bd 24bd 02fa fabc 2301 ccbd 4299 a93d
-0.057887677 -0.033622876 0.060513005 0.023764942 -0.058806404 0.009880743 -0.07968882 -0.037982024
0.04058986 -0.0021003624 0.04935731 0.0057801227 -0.014304236 -0.03384411 0.039847273 -0.044062626
0.024884362 0.2689434 0.030424932 -0.043656386 -0.040220235 -0.030636791 -0.09961154 0.08281185

conv3.depthwise.weight f4 [24, 1, 3, 3]
00000000: de07 323e 7dea 3c3e beed 653d 9776 403e
00000010: 913f 673d 3a15 963c 45eb 2e3c 1f44 49bd
00000020: 7e66 c33b 0185 63bd 4080 4b3d 35f9 043e
00000030: 2e56 033e 432f 313d f22e 89be 8c78 b4bc
00000040: ffec d2bd a3f2 2cbe d2b0 5bbd 62b3 35bc
00000050: afeb 443e d7a7 aa3d 7dd0 ce3c aef9 d2bd
00000060: b9f8 dfbd 5cc4 9bbd 0980 b2bd 13f6 0c3e
00000070: 9c97 e73d 9c60 8bbd 2e89 5cbe a1ad dd3d
00000080: cfb5 193e bf19 61be a82a b1bd 6e1a f73d
00000090: fbea 0f3d f6a1 9abd c2eb 01be df27 e0bc
000000a0: 7af3 a8bd ee06 ad3c 8ac6 e9bd 55b7 8d3e
000000b0: 64bc 953e 4414 98bd 0905 bdbd 40cd 3abd
000000c0: a525 713c 7d9a eebd c244 3a3d e1da ab3d
000000d0: 0581 88bd 4487 b6be 724d 89bc 1a2a 593a
000000e0: c48a f53d 9708 513e 56e5 623e ea1f 6c3c
000000f0: 2a5d 3abe 2408 05bc 7494 42be 02ef 833d
00000100: cc4a a6bd 9535 f43c fc27 f3bd 409b 3d3b
00000110: 84fc 0f3e ebd5 de3d 6dd4 09be 0416 3fbd
00000120: 11c8 4abe 4733 3ebd 239c 34be 82bb 853d
00000130: 88b6 e23d ff35 b63c 3224 e2bd 5536 b23d
00000140: cc4a 363a e1eb 11be 40c0 cf3c c51e 15bd
00000150: b5f7 76be a4bf b8bc c945 6ebd 6ac5 a53e
00000160: 9ae9 753e 71eb 0bbe 1a7f 223e 110f 25be
00000170: db99 febd 1aa6 b33e 4675 02be deb7 c13d
00000180: 6caa 213d 3b5b 8abd d7d8 793e 272b 28be
00000190: faf9 8ebe 98db 66be 7459 6b3e 34d8 183d
000001a0: 2384 473e 67ff a23d 681a 753d d118 c53d
000001b0: 0db4 60bd 7885 04bd 88e2 3dbe e9fe 013e
000001c0: 2bf7 2e3d 348d a8bd a53d ad3d bfd2 09be
000001d0: e963 a5bb 11fc 4dbd 2d93 d1bd f546 fc3d
000001e0: 1447 d6bd 9870 a7be 93d0 57be 0ee3 793e
000001f0: 3dbd 113e e338 4abd 84a0 103e 9e04 563c
00000200: f04e 393e 72e6 703e 825d 1abe 0d50 81ba
00000210: 1cf5 8a3d 4fc8 c93d 2a87 c43d 1be9 e73d
00000220: 194a 143e e682 a9bd 5361 373e 5a7e 46bc
00000230: d8fc 14be 0d20 fa3d 934a 8bbd f463 eebd
00000240: 5205 80bd 940f b2bd 68df 94bc 9488 04bd
00000250: c238 463e 4540 003e c9a0 553d 0101 4f3e
00000260: 4be4 8e3d eee5 2dbe 4827 013e b6a2 33be
00000270: 5a92 0f3e 128f e83d b1bb 9c3d 19b9 1dbe
00000280: a2b5 23be 2fa3 373e 797f 693d 9ad4 eabb
00000290: 3954 9e3d 465f 2ebe 1e04 df3d d26d 9a3d
000002a0: c2e6 a73d 0df1 4a3d b4c2 863e f885 243e
000002b0: 0542 823c c89a f63d 3f09 42be e77c 0dbe
000002c0: a7c5 00be 2580 edbd 28fc 41bd 7809 1b3e
000002d0: 439b 023d 285f 0fbd e26a 6a3e 84a5 6cbd
000002e0: 4945 2c3e c4be 0fbe 5207 633d edb2 2fbe
000002f0: 6d45 1fbe 5dd8 9cbd ca9c 75bc 9e11 9bbd
00000300: cd3e 0abe b9a5 883d 95c5 633e c362 17be
00000310: 53d3 33be 4d24 3b3e 9551 3ebb 8c62 5bbd
00000320: ff06 9a3e 4cc9 8fbe 04bf e4bd 9c67 9b3e
00000330: 3d55 4dbe d01e cdbc 202c ef3d 181c 12be
00000340: 15f1 1a3d 028c 443e 41db 95bc 5c0d b73b
00000350: a6fc e2bd 06d3 893d bf79 21bd ef1f aa3d
0.17385814 0.18448825 0.05613493 0.18795238 0.056457106 0.018320668 0.01067621 -0.04913723
0.0059631458 -0.055546764 0.049682856 0.1298569 0.12825844 0.043257963 -0.2679363 -0.022030137
-0.1029911 -0.16889434 -0.053635426 -0.0110901315 0.19230531 0.08332794 0.0252459 -0.10301529
-0.10936112 -0.07605812 -0.08715827 0.13765745 0.11308214 -0.06805536 -0.21536705 0.10824133
0.1501076 -0.21982478 -0.08650714 0.12065588 0.035136204 -0.07550423 -0.1268759 -0.027362762
-0.082495645 0.021121468 -0.114148214 0.27678934 0.29245293 -0.0742574 -0.09229476 -0.045605898
0.014718448 -0.1165056 0.04547573 0.08391357 -0.066652335 -0.35650074 -0.016760562 0.00082841667
0.11989358 0.20413433 0.22157797 0.014411906 -0.18199602 -0.008119617 -0.19001943 0.064420715
-0.08119735 0.029810706 -0.11872861 0.0028931648 0.14061171 0.10880645 -0.1345994 -0.046651855
-0.19802882 -0.04643562 -0.17637686 0.06529905 0.11069971 0.022242544 -0.1104206 0.08701769
0.00069538946 -0.14250137 0.025360227 -0.036406297 -0.2411793 -0.022552319 -0.05817202 0.32377177
0.24014893 -0.13664033 0.15868798 -0.16119029 -0.12431689 0.35087663 -0.12740049 0.09458898
0.039469168 -0.06755682 0.24399124 -0.16422711 -0.27925092 -0.22544706 0.22983342 0.037315562
0.19484 0.079588704 0.059839636 0.09623874 -0.05485921 -0.03235385 -0.18543446 0.12694897
0.042716186 -0.08230057 0.084590234 -0.134593 -0.0050473106 -0.050289217 -0.1023315 0.123182215
-0.10462776 -0.3270309 -0.21075659 0.2440302 0.14232345 -0.049370658 0.14123732 0.013062624
0.18096519 0.23525408 -0.15074733 -0.0009865776 0.06785032 0.09852659 0.09596093 0.11323758
0.14481391 -0.0827692 0.1790822 -0.0121150855 -0.14549577 0.122131445 -0.06801333 -0.11640158
-0.06251015 -0.086943775 -0.018172935 -0.032356814 0.19357589 0.12524517 0.05215529 0.20215227
0.06977137 -0.16982242 0.12612641 -0.17542538 0.14020672 0.113554135 0.07652987 -0.1540264
-0.15987256 0.17933343 0.057006333 -0.0071664574 0.07730908 -0.17028531 0.10889457 0.07540478
0.081983104 0.04954629 0.26320422 0.1606673 0.015900621 0.12041241 -0.1894884 -0.13817178
-0.12575398 -0.11596707 -0.047359616 0.15140331 0.03188635 -0.035002857 0.22892335 -0.057775036
0.16823305 -0.14037615 0.055426903 -0.17158099 -0.15553828 -0.076584555 -0.014990995 -0.075717196
-0.13500519 0.06672234 0.2224334 -0.14783768 -0.17561083 0.18275566 -0.0029040326 -0.05356078
0.30083463 -0.28083265 -0.11169246 0.30352485 -0.20052047 -0.025039107 0.11678338 -0.1426853
0.03782757 0.19194034 -0.018293025 0.0055863094 -0.11083345 0.06729703 -0.039422747 0.08306872

conv3.pointwise.weight f4 [32, 24, 1, 1]
00000000: 47e7 8c3d adfe fb3d 4d66 3bbe 7732 583d
00000010: c134 e93d 16fe 2fbd 10c4 673e 2d24 263d
00000020: ba19 b8be f996 cabd 956b cbbe 41e4 553e
00000030: 2f04 02be f805 aebc d55d 9cbe ab83 81be
00000040: 4f88 69bc 1ecb 25be 22f7 543e b95a 623e
00000050: 32a4 9dbe 2a70 9abc 51da c3be 31d6 2a3e
00000060: edf9 cabe e1b7 46be 199c 323f c55c 1f3e
00000070: ee94 e6be 7301 c33e c602 3bbf 4eae a43e
00000080: 66b5 c23c be50 02bf 0964 083f 20dc d73d
00000090: 07a4 693e 6eb5 6b3e a0c7 cabc 5daa 8a3e
000000a0: e4b3 94bd 6957 153e 7c76 d7bd cec6 183e
000000b0: 4237 b73e e14a 983d f2ad 9ebe 92f7 533e
000000c0: 8389 c53b 8549 c6bd 9d88 8d3e 4b39 3abe
000000d0: 3a0e 01bf da7b cf3e f322 a23e 50e0 30be
000000e0: 31fa 833e 006b d13e edae 97bb f30b 11be
000000f0: 75f9 163f 658e c53e 11ec 753d 67db 943e
00000100: 62d4 b3bd 207b 073f fd52 f43d 9e64 babd
00000110: c960 93bd db40 973e c5ee 953c fc60 e2be
00000120: c6bf bbbe 40e7 d73e b117 20be e3cb 603d
00000130: e840 293d 7500 dc3d 84a5 bcbd fafb 04bd
00000140: c69c a2be 23c6 c4be 389b 9ebe 1a15 393f
00000150: e8aa 163f 8623 e53e 360f bd3e bc04 813d
00000160: 7d08 913e 9904 d33d d265 11bf 5fe8 313e
00000170: d471 cf3d e643 d6be 1f03 bc3d 4e02 74be
00000180: 0a8d fdba 3065 463d c7cf b83c 0634 573e
00000190: 43b0 6d3e 835b 2fbe 10de 413e a49f 603e
000001a0: 2283 363e 6b28 2e3e b192 f4be 02a5 b8be
000001b0: 8a7b f33e ae03 8bbe 831b 7fbe 4edc 0fbe
000001c0: 64d3 983d d3dc d6be d091 323e 64a9 093f
000001d0: 7a86 9bbe 153e e93d 856f bbbd f297 913e
000001e0: 4071 983e 5bb0 7e3e 6135 123f a0c2 033d
000001f0: ed26 0abc 7653 90be 2f52 8fbc 7372 1cbe
00000200: cda9 06bf fee9 043d c67d ccbe b293 513f
00000210: 6734 62be f377 663f 5be6 22be bef9 3cbd
00000220: 3c42 bf3c c829 90bd 319c 803c 397e 5b3e
00000230: d53b d4be 26fb 4a3e e382 ee3d 860b 73be
00000240: 0ee3 42be 5172 c93c 89db d83e ef63 acbe
00000250: d240 80be e084 4c3e 318d a8bd 646f 85be
00000260: 26d5 fa3c 74ed 38be 65b8 e2be e1a0 acbd
00000270: 9703 4cbc f818 c7bc efca b93d e0f5 bf3d
00000280: 9c1b 913c 0bf2 6abd 83e9 413d a338 06bf
00000290: b5f2 3bbd 1c4c 1a3d e0d2 8f3e f202 15bd
000002a0: d1e7 01be 00e5 8a3e 604d 623b 7f28 45be
000002b0: ed9c 37bf d961 a33e eca9 7bbc b4ef bb3e
000002c0: 2429 9dbd d0f4 21bf 2ce6 d5bd 9785 4ebd
000002d0: f49c 693e ab84 413e ba76 563e 01f1 3e3f
000002e0: fa8d 8f3d ebd1 903e c734 ad3d 0df1 a5be
000002f0: 71ec 48be d40c 83be 43d2 c93c 4533 bfbd
00000300: 1e46 98be 5585 8b3e dc6e 483c 4dce 6fbe
00000310: 1d4f 55be c5dd 78be 97dc 313e 3357 963e
00000320: f3bc 7f3e 2883 283e 1ad3 8c3e e075 68bc
00000330: 96ae c4be facb de3e fa59 49bd 6d8b 2d3f
00000340: 4aaf 8e3e 81de ecbd 7b30 5e3e 47f8 e83d
00000350: 2a09 d33e 2748 853e 853f 2b3f 0a6d 98be
00000360: f1d6 d03d 6fe5 f33b 5e8a 493e 47ae d23e
00000370: abbe afbd b938 e7bd 3af7 13be 98c6 b7be
00000380: 4555 f23b 78f1 e03e 4f8c 1b3e f773 813c
00000390: 9244 d93e a6c8 0a3f 2419 2bbe 7727 fd3d
000003a0: 4d3a 1fbb fd6a d23e 2a1f 89be 598f 873d
000003b0: 3833 3b3e f342 1fbd 473a 1abe 2f3b 603d
000003c0: 332d 083e 2a40 bd3d 6854 d9be 14e0 9a3e
000003d0: aab6 a83e e990 6dbd 4d92 433e a267 19be
000003e0: 16c2 8cbb b691 c3be fa5b c6bd 2ffe 96be
000003f0: 1227 33be 7d60 8e3e 1cb8 193d b29e 4d3d
0.0688005 0.12304435 -0.18300743 0.052782502 0.11387015 -0.042966925 0.22633386 0.040561844
-0.35957128 -0.09892077 -0.39730516 0.20887853 -0.12696908 -0.02124308 -0.30540338 -0.25295767
-0.01425369 -0.16190764 0.20797399 0.2210492 -0.30789334 -0.018852312 -0.382525 0.1668327
-0.39643803 -0.19406082 0.69769436 0.15562733 -0.450355 0.38087043 -0.73051107 0.32164234
0.023768138 -0.5090445 0.5327764 0.105400324 0.22816478 0.23018429 -0.024753392 0.27083102
-0.07260874 0.14584126 -0.10520646 0.14919588 0.35784346 0.07436157 -0.30992085 0.2069991
0.0060283556 -0.096819915 0.2764329 -0.18185918 -0.50412333 0.4052418 0.3166729 -0.17273068
0.25776818 0.40901947 -0.004629007 -0.14164715 0.5897439 0.385852 0.060039584 0.2907364
-0.08780743 0.5292225 0.11929891 -0.091012225 -0.07196195 0.29541668 0.01830233 -0.44214618
-0.3666975 0.42168617 -0.15634038 0.05488194 0.041321665 0.10742275 -0.09211257 -0.032466866
-0.31760234 -0.38432416 -0.30977798 0.72297823 0.5885453 0.44753665 0.36925668 0.06299731
0.2832679 0.10303611 -0.5679599 0.17373799 0.10129133 -0.41848677 0.09180283 -0.23829004
-0.0019344401 0.048436344 0.022560013 0.21015939 0.2321177 -0.17124753 0.18932366 0.21935898
0.1782346 0.17007606 -0.47768167 -0.3606339 0.4755519 -0.27151245 -0.24912839 -0.14048883
0.074621946 -0.4196535 0.17438436 0.53774095 -0.30376035 0.11388794 -0.0915213 0.28436238
0.29773903 0.24871962 0.571127 0.03216803 -0.008432132 -0.28188676 -0.017495243 -0.15278034
-0.52602845 0.032449715 -0.39939708 0.8186599 -0.22090302 0.9002678 -0.15908186 -0.04613661
0.023347013 -0.07039219 0.015699478 0.21434869 -0.41451898 0.19822368 0.116460584 -0.23734865
-0.19031927 0.024590643 0.42354992 -0.33669993 -0.25049454 0.19972563 -0.08230055 -0.26061547
0.030619215 -0.18059331 -0.44281307 -0.08429123 -0.012452028 -0.024303898 0.0907191 0.09373069
0.01771336 -0.057359736 0.047341835 -0.5243017 -0.04588576 0.03767024 0.28090572 -0.036379762
-0.12686087 0.27127838 0.0034530982 -0.1925373 -0.71723825 0.3191059 -0.015360337 0.36706316
-0.076738626 -0.6326418 -0.104442924 -0.05042037 0.22813779 0.18898265 0.20943728 0.7458649
0.07009502 0.28285155 0.08457332 -0.3241047 -0.19621445 -0.25595725 0.024636393 -0.09335951
-0.29740995 0.27250162 0.012233462 -0.23418541 -0.2083096 -0.24303348 0.17369305 0.29363403
0.24974422 0.16456282 0.27504808 -0.01418826 -0.38414448 0.43514997 -0.049158074 0.6779087
0.2786811 -0.11565877 0.21698181 0.1137548 0.4121793 0.2603161 0.668938 -0.2977069
0.10197247 0.007443122 0.19681689 0.41148588 -0.08581289 -0.11290116 -0.14449778 -0.35893703
0.007395419 0.43934226 0.15190242 0.015802367 0.42435127 0.54212415 -0.16708809 0.12361043
-0.0024296225 0.4109725 -0.2678159 0.06619138 0.18281257 -0.038882207 -0.15061294 0.054743942
0.13298492 0.09240754 -0.4244721 0.30249083 0.32951862 -0.057999525 0.19098778 -0.14980939
-0.004295598 -0.38197106 -0.09685512 -0.29490802 -0.17495373 0.2780799 0.037529096 0.05020017

conv3.pointwise.bias f4 [32]
00000000: 6dc3 2cbc d1e3 253d 13bb 4b3c 67ce 013d
00000010: 522b 82bc a2d1 883b cfab a2bb 531b 8c3c
00000020: 05ae 38bd 81a2 5e3c 3d36 93bc 7c49 903b
00000030: 9f85 31bc 29fa 36bd 0d48 333c fce3 b0bc
00000040: e079 e7bc 82a5 733a 2873 1fbb 7328 0ebd
00000050: 3c33 943c 4601 e1bc e278 78bc 6d48 17bd
00000060: 5bd1 eaba 9f02 e3bc 92b2 efbc 87ee 0cbd
00000070: 0352 bdbc e582 bf3c ed86 c6bc a823 8ebc
-0.01054464 0.040500466 0.012434739 0.03169098 -0.015889797 0.004175381 -0.004964329 0.017102873
-0.045087833 0.013588549 -0.017970199 0.0044032913 -0.01083508 -0.044672165 0.010942471 -0.021593086
-0.028256357 0.0009294377 -0.0024330113 -0.034706544 0.018090837 -0.027466428 -0.015165539 -0.036934305
-0.0017915176 -0.02771121 -0.029259954 -0.034407165 -0.023110395 0.023377845 -0.02423426 -0.017350987

fc1.weight f4 [128, 1568]
00000000: 4189 283e 43af cb3c 60ac 513e 740e 413d
00000010: d9d4 fb3d a1d3 feba 0ec0 173e f166 903d
00000020: 20b1 8a3e c851 e93d 431b a63e 5195 32be
00000030: dc8c febc 48fe 903e 6399 603d 53c4 e6be
00000040: bb3e 9d3c 836c 13be dbca bc3d 9ae8 f53c
00000050: 0fd1 acbe e25e 37be 3250 a33d 99ed 6dbe
00000060: 84ab c9be b3b9 0b3d 1236 6439 7c43 0ebe
00000070: c2ea 13be 9a24 c3bd 6889 3c3b 3072 c63c
00000080: e9ef 15be e408 febd dff1 923b 3af4 6a3d
00000090: 568e 4dbd e48a 87bb 01b7 c53a 6a85 11bb
000000a0: 70d7 833c 58a1 ec3d ba59 69bd 42c4 1ebc
000000b0: b1e2 84bd d8b5 663d 0d33 f9bc c001 153e
000000c0: 0e92 81bc 1b82 ccbd 93bd 2d3e 2eaa 923d
000000d0: 9071 a93d 2a6a 003e 0c76 683d 727e f13d
000000e0: 11d1 1f3d 0b82 4d3d 6e4d 12bd 0fff 2cbe
000000f0: aa33 5dbe 9a9a 61be 0e6c d53d 4577 f43d
00000100: 94a1 8b3d 4bc5 193e 04c8 103d b3fa 9dbd
00000110: 510e ca3c 502f 8d3b 9020 bf3d ad1d 7ebd
00000120: 00a6 b7bd f8fb 91be 90c5 923e cda9 6a3e
00000130: 36d0 943b 5465 de3e a61d 06bd 53bc 17be
00000140: d8d5 90be 5c5e 22bc 86fa 593e 0122 963d
00000150: 0e78 4a3e 822e 223e a342 ac3d f5be 22be
00000160: 0c89 c53e 10ce c93d 4abb 8abd c2af 8bbe
00000170: 8017 d93d e9b4 f4bd 47cc ac3e ca21 90bd
00000180: 2cb0 823e 8100 6bbd 9021 77bd 02bf 8abe
00000190: e3d1 7cbd 3498 873e b707 13be 184b a03d
000001a0: 0b47 333e f41e c6bd 2cb8 28be 6577 e2bd
000001b0: 74e3 9f3d 4936 473d 09a1 5e3d 720a 213e
000001c0: 6462 42be 442a 463e 1921 f63b 4a44 9cbd
000001d0: 1ab5 3dbc 921c 783e 9cbd 9b3c ca3c 863d
000001e0: 706d c8bd a574 6e3d 94a7 a23e 987e e43d
000001f0: 8614 5e3d a521 e03c 5206 7ebd b0a2 203e
00000200: 4b0d b43d 18ac 71bd 98b4 753d 8aba 9bbe
00000210: 0055 55bd e377 47be 5fc5 173d 9b0f 4cbe
00000220: 1edf 72be 611b 59bd 3297 a93d 2e98 723d
00000230: f00e 4ebe 24a8 c63b 48e9 79be 6682 a9be
00000240: bba4 07be 34df c6bd 4be7 05be 6f18 2a3b
00000250: 34af c53d 6986 e33b 441f 2cbe 65fe d83a
00000260: 0d19 76be ce20 553c cde1 7cbc ef6d f53d
00000270: 8bf8 7ebd 7139 debd 1242 11bb 4885 3cbd
00000280: 50ad 07be 33da 6bbb 20d5 50bb 7f20 4a3e
00000290: 0d57 443d 7159 d33d f5fa d23a cf95 d93d
000002a0: 4ae6 19bd 5594 39be c0aa 91be 2d76 8cbd
000002b0: 8f65 b83d 5fce f0bd 243d b03c e42d 9c3c
000002c0: 087c 9b3b 932a 0a3e ac83 a1be 78ff 693e
000002d0: dd8d 8b3d 8253 18be efc9 673e 0356 0ebb
000002e0: bc03 2bbd 0c2b b63d 6d29 ba3b 181c 943d
000002f0: e421 003e cf18 2c3e 22fc 21be 34d9 afbe
00000300: 1579 4c3e 71b9 bc3d 1d7f ab3e 4610 3fbe
00000310: 169a 603e f825 7c3d 2129 3cbe ef15 7c3d
00000320: 7f5d 11be 0b49 c9bb c8e9 c93c e99f acbd
00000330: e606 cabd 4f96 61be 448c 5ebc 0696 55be
00000340: d937 b8bd 5d5e 9b3d 91d3 58be b02e cbbc
00000350: 6035 87bd 0c2c 3bbd 2b7f 073d b482 20bc
00000360: 0c65 14be b3a6 23bc 3ca6 9c3e a7cf 4cbb
00000370: 045f 50be 6731 833d f0d2 66bd 84c2 62bd
00000380: 59f4 543e 1460 2abd 67eb 2ebe 3821 603c
00000390: a9c5 1bbe 7866 3ebe 38cf 17be 490e 59be
000003a0: 4c54 1ebe 1208 bbbd 6731 bf3d d484 b13c
000003b0: b706 f23d 4cb0 a3ba 3dfa 283e 0912 313e
000003c0: 02d5 89bd 4db0 27be 6077 32bd b91b 8b3d
000003d0: 1d75 d0bd 3815 9cbc f8ee 47bd d202 173e
000003e0: 12d3 e7bd d4b5 9a3c 1d9c cdbd 9423 90bc
000003f0: 7f88 b9bc d0b0 e8bd 345c 903d 296d 70bd
0.16458608 0.024863845 0.20475912 0.047132924 0.12296457 -0.0019441732 0.14819357 0.070508845
0.2708826 0.11392552 0.32442674 -0.17439772 -0.031073026 0.28319 0.05483378 -0.45071658
0.019194951 -0.14396863 0.09218379 0.03001814 -0.3375325 -0.17907289 0.079742804 -0.23235168
-0.3938867 0.034112643 0.00021763917 -0.13892931 -0.14445022 -0.095284656 0.0028768424 0.02422437
-0.146423 -0.124040395 0.0044843997 0.05736182 -0.05018457 -0.00413643 0.0015084447 -0.0022204765
0.01609394 0.115542114 -0.056970336 -0.009690346 -0.064885505 0.056325763 -0.03041985 0.14551449
-0.015816715 -0.09985753 0.16966848 0.071613654 0.082736135 0.12540498 0.056753203 0.11791696
0.03901774 0.050172847 -0.035718374 -0.16894172 -0.2160174 -0.22031632 0.104210004 0.11936811
0.06817928 0.15016668 0.035347 -0.07713833 0.02466503 0.0043086186 0.09332383 -0.06204002
-0.08967209 -0.2851255 0.28666353 0.22916336 0.0045414222 0.43436682 -0.03274312 -0.14817934
-0.2828815 -0.009910192 0.21286973 0.073307045 0.1977236 0.15838054 0.084111474 -0.15893157
0.3858112 0.098537564 -0.06774004 -0.2728253 0.106001854 -0.119485684 0.337496 -0.07037695
0.25525033 -0.057373527 -0.060334742 -0.27098852 -0.0617236 0.2648331 -0.14358412 0.07826823
0.1750757 -0.096738726 -0.16476506 -0.11057929 0.07807055 0.048635755 0.054352794 0.15726641
-0.18982846 0.1935206 0.0075112698 -0.076302126 -0.0115788225 0.24229649 0.019011311 0.06554563
-0.097864985 0.05821671 0.31768477 0.11156958 0.05421879 0.027359793 -0.062017746 0.1568706
0.08791598 -0.059002012 0.05998668 -0.30415756 -0.052083015 -0.19479327 0.037053462 -0.19927828
-0.23717925 -0.053004626 0.08280791 0.05922716 -0.20122886 0.0060625244 -0.24405396 -0.331073
-0.13246433 -0.09710541 -0.13076513 0.0025954505 0.09652558 0.006943513 -0.16808802 0.0016555308
-0.24032994 0.0130083095 -0.0154346945 0.11983859 -0.062248748 -0.108508 -0.0022164625 -0.046025544
-0.13249707 -0.0035988211 -0.0031865314 0.19738959 0.04793458 0.10319794 0.001609652 0.10624277
-0.037573136 -0.1812299 -0.28450584 -0.06858478 0.09003746 -0.11758112 0.02151353 0.019064851
0.0047450103 0.13492803 -0.3154577 0.2285136 0.06814168 -0.14875606 0.22635625 -0.0021718747
-0.04175161 0.08894929 0.005681208 0.07231921 0.12512928 0.16806339 -0.15818837 -0.343454
0.19968064 0.09215058 0.33495417 -0.18658552 0.21933779 0.061559647 -0.18375064 0.061544355
-0.14195822 -0.0061427406 0.024647608 -0.08428938 -0.09864597 -0.22029994 -0.013583247 -0.2085801
-0.08995027 0.07586358 -0.21174456 -0.024802536 -0.06601977 -0.045696303 0.03308026 -0.009796787
-0.14491671 -0.009988475 0.30595577 -0.00312517 -0.20348746 0.06405907 -0.05635351 -0.055361286
0.20796336 -0.041595533 -0.17081986 0.013679795 -0.1521212 -0.18593776 -0.14825141 -0.21196856
-0.15461844 -0.09132399 0.093355946 0.021669783 0.11817687 -0.0012488454 0.16501708 0.17292036
-0.06730081 -0.16375847 -0.043570876 0.06792397 -0.101785876 -0.019053087 -0.048811883 0.1474717
-0.11319555 0.01888553 -0.10039542 -0.01759509 -0.022648094 -0.11361849 0.07048836 -0.058697853

fc1.bias f4 [128]
00000000: 4fe7 a53d fe4f e33d 3d91 853c 7cb3 e83c
00000010: e745 1d3d cf5e f13c 0caf e8bc 7007 5f3d
00000020: aee7 9e3c b7d5 823c fd13 11bc 602b af3d
00000030: d41c 4a3b 89c6 febc d2e7 7d3d 6eea a2bb
00000040: 17a1 673d e9d9 b73c 32b6 8e3b 51f3 ed3b
00000050: 945a 113d 24d2 883b a7a4 443d 7a51 02bc
00000060: d8ed 253d 577b 103d 931a 263d 4e6b e23c
00000070: 4df7 52bd dcb9 92bd c5ae e93c a311 b3bb
00000080: 5b2d 6d3d 3c77 3f3c 9b95 193d 288a 583b
00000090: 9a53 333d cacb 3e3d 618a 4f3d f768 8d3d
000000a0: 8f67 9fbc 94c3 173d 7ccf da3c fd47 d7b9
000000b0: 2b9d c9bc d76f ebbc ef90 153d 40b4 8abc
000000c0: 5a57 fd3c 8088 263d 2b86 803d 47aa d83c
000000d0: 21e7 663c 3331 93bd ef25 4abd 05d9 0a3d
000000e0: 458d d4bc 64c5 813d 4fe2 c03c cb14 f33c
000000f0: 5bef b4bc b224 863b 1a60 2f3d c67e 06bd
00000100: 98d8 25bc 5a35 1fbd fc23 9c3c 25b7 85bd
00000110: aa65 2bbb 78e7 01bd 44a4 0abd be61 85bc
00000120: 4e4a e2bc 00ff da3c d139 80bc 6d02 273d
00000130: b5b3 893c 4e09 283d f14e 963d 3005 c4ba
00000140: 57cc f33c ad45 953c 2bbf 9fbc b14b c0bc
00000150: 32a1 733d dc3c 123d d3cb 553c f7ab dd3c
00000160: 3102 85bd 2576 263d 848e 723d 1273 5d3d
00000170: 4c5a 4abc 7dfc 75bd 9150 e33c 7627 153c
00000180: a36d d13c fd07 533c 987a 12bd a908 443d
00000190: 603c 9bbc 55be a93c 3913 933d 932c 883c
000001a0: 7a4a b3bc 32a8 423d 5984 303d 37c2 113d
000001b0: 46b1 483c 455a 9b3d c359 7ebc ed8e 663d
000001c0: 6244 a23c f456 013d 6f96 ee3c 160e cd3c
000001d0: 6f7b d03c ed00 aabd 092d 813d 44df 9bbc
000001e0: b7bb 1f3a 434f 70bd 401c 9e3c c5ca 48bd
000001f0: 1527 c63c a053 9abc ac3e 193c 8104 213c
0.08100759 0.11099242 0.016304607 0.028405897 0.038396742 0.029464154 -0.028403781 0.054450452
0.019397583 0.015971048 -0.008854863 0.08553195 0.0030839937 -0.031100528 0.06198866 -0.004971794
0.05655011 0.022442775 0.0043552155 0.0072616716 0.035486773 0.0041754413 0.048008587 -0.007953996
0.04051003 0.035273876 0.040552687 0.027639057 -0.051505376 -0.07164356 0.02852572 -0.005464749
0.057904582 0.0116861425 0.03749619 0.0033041332 0.0437809 0.046581067 0.050669078 0.06904786
-0.01945856 0.037051752 0.026710264 -0.0004106163 -0.024611076 -0.028739853 0.036515173 -0.016931653
0.030925442 0.04065752 0.062755905 0.026448382 0.014093191 -0.071871184 -0.049352583 0.033898372
-0.025946269 0.063364774 0.023545412 0.029673 -0.02208679 0.00409373 0.04281626 -0.032835744
-0.010122441 -0.03886924 0.019060127 -0.06529073 -0.0026153126 -0.031714886 -0.033848062 -0.016281959
-0.027623322 0.026732922 -0.015652569 0.040773798 0.016809324 0.0410245 0.07339276 -0.0014955159
0.029760523 0.0182217 -0.019500336 -0.023473592 0.0594799 0.03570257 0.013049084 0.027059538
-0.064945586 0.040640015 0.059217945 0.054064818 -0.01235063 -0.060055245 0.027748378 0.0091036465
0.025564974 0.0128803225 -0.035761446 0.04785982 -0.018949687 0.02072064 0.07181401 0.016622817
-0.0218861 0.047523685 0.043094967 0.03558561 0.0122492965 0.07585577 -0.015524331 0.05628865
0.019807998 0.031577066 0.029124467 0.02503113 0.025449483 -0.08300958 0.06307418 -0.01902736
0.00060933403 -0.05866934 0.01930058 -0.0490215 0.024188558 -0.018838704 0.009353321 0.009827734

fc2.weight f4 [64, 128]
00000000: 1223 c83e b2d3 a73d 1c36 3f3d b5c7 563e
00000010: 21ec 15bc c612 d73d ba42 02be e28a 96bd
00000020: 9de2 3d3e d2af 0dbd cd17 95bc 74fc 17be
00000030: 05c7 bdbe dfb4 afbe 4169 9abd c931 cfbd
00000040: cbbb 743d e9db c1be 06a7 7fbe 662d 923d
00000050: b9fe febe 0ac9 32be 3f1e bbbc 4cf2 103e
00000060: 9eed 21bd b1e2 88be 217d 3c3e 2521 bbbd
00000070: 5bdc 523e 22d0 0a3e 7d3b acbc f834 d6bd
00000080: 8937 86be 2b06 c7be ff03 58be 8c23 c03d
00000090: 5397 a5be f77f 37be 052e 61bc b745 8dbe
000000a0: f886 d7bd 7032 863e 0387 233e 69d9 b9be
000000b0: 9bfc d93d f576 d73e 6772 a2bd fbf3 053f
000000c0: 6c66 713d a5cf 31be e668 d73d 520b c23c
000000d0: d8d1 b93d da90 283e 91af a03e dd07 37be
000000e0: c219 343d 1dec 4fbd 34c2 8abe ae4a 0b3d
000000f0: 9fbf cabd 490a bebd 59a1 b63d 0e92 0b3e
00000100: 15e3 9c3e 90fa a9be 1809 98bd 929f fbbd
00000110: 46d9 033e 1a99 6abd 802a 1ebe 2a82 83be
00000120: 41ef 96be 393a 953d 0cc7 533e c823 2d3d
00000130: 4fb4 c7bb c442 cb3e ac1f 05bb 7b7d 83be
00000140: 285c 9dbe 25ac 93be a667 7dbe 235b a2be
00000150: 5dd9 0f3e 70cb bcbe 7f61 4b3e 5e30 9b3d
00000160: 5436 b73b a634 adba 28d0 ef3b b7a4 87bc
00000170: e1f0 353e ef54 28be 160b 2dbe afd9 e5bd
00000180: 27be cb3d dc0c 0cbd 81d2 3b3e 7bf6 11bf
00000190: 1940 c2be 8e15 453e 1440 9a3e 6d1f aabe
000001a0: 6dd5 813d 945a 213e 27d7 903e b56e d3be
000001b0: 95d2 d63d c43d c7be 97d8 103a 230b a73e
000001c0: 0520 4ebd 58b4 cfbe 0fac 36be 77dc b7be
000001d0: 5981 b93d 3ce5 6b3e d5e6 edbd df54 81be
000001e0: cb8b bc3e 992b 87be 1b85 373e 97b2 c8bc
000001f0: 1095 97bb 55e4 75be c5c6 06bd 31db 2dbe
00000200: d1a0 87bd 10c8 883c 90e3 3f3d 3505 333d
00000210: 5613 02be 362a 7e3e 2c86 93bd a8e8 8e3d
00000220: 29a0 c8bd c447 a8bd 18ea cfbc 2d4c dbbc
00000230: 97ff d43d f84a 48bd 6776 c6bd 40da 9e3e
00000240: b969 b53e 3018 093e 96d9 a93d efd1 6f3e
00000250: cc22 99be 5a6c 8b3e 1f7c a93d 0b43 94be
00000260: f39a 91be f395 5cbc 3792 2dbe 0534 b6be
00000270: aa6b 8dbe 4d22 2bbe 13c6 51be ae88 c03d
00000280: 680d 65bd 39ee 4d3c caa8 193d 2506 983d
00000290: c486 653c 31d5 a7be 5af8 b43d 8f77 2b3e
000002a0: eb58 c73e 0594 91bc 8d06 673e 7588 e8bd
000002b0: 2499 10bc c6ed 85be 9637 043d 1346 9fbe
000002c0: 9708 8bbe 23ba ae3c 9a6f 6abd 982b 8b3e
000002d0: 03e6 b7be fc1d 9b3b a1c6 be3c 5b65 2ebe
000002e0: 5967 12be b8b5 183e a404 a0be 689b 02bf
000002f0: 5989 87bd 6928 353d a231 803e ca14 63be
00000300: 7e8e d93b 83dc dbbb 96cd 1d3e 4b26 c3bd
00000310: 9b2c 6abe 0bb8 013d 24fe b53e 082c 353d
00000320: fba7 1c3e 706e c5bd f14f 26be 66be c53e
00000330: 2258 063e 3035 b6bd 3acb 973c d044 aabe
00000340: da00 04be 4fdc 51be d16a a93d 9d0f 193e
00000350: b7f6 41be af3b 9d3e d459 cdbd 3b1d 8cbe
00000360: 1622 98bc f516 a6be 70fa a9be 1610 ffbd
00000370: 8b16 b83c 0a1b 0a3e e877 253e ad76 b5be
00000380: c6ec a8be 916a 0f3e a55f 58be cda5 0e3e
00000390: 11ad 23be 4a6b 11bd de3a 59be 3dc4 13be
000003a0: eef9 443e 385f bdbe 1d39 093e 0e8d 163d
000003b0: 7954 40be 92e7 0d3d 0cf9 b33e 7b82 dfbd
000003c0: 4e2a 3c3d 16d4 71bd fa5a 603e b0bf 633e
000003d0: c9d4 3bbe b20e 923e dda4 693c 333c a13e
000003e0: 4c85 68be c39d 6e3e 77b8 7e3d 6fae d5be
000003f0: 019a 07be 3d64 28be 142f 4d3c 4a68 33be
0.39089257 0.081946746 0.046682462 0.2097462 -0.009150536 0.105016276 -0.12720767 -0.073507085
0.18543477 -0.034591503 -0.018199826 -0.14842397 -0.37065902 -0.3431768 -0.07539607 -0.10116918
0.059749406 -0.3786309 -0.24966058 0.07137565 -0.49803713 -0.17459503 -0.02284157 0.14154929
-0.03953325 -0.26735452 0.18407108 -0.09137181 0.20591871 0.13555959 -0.02102446 -0.10459322
-0.26214245 -0.38871893 -0.21095274 0.0938178 -0.32342014 -0.17919908 -0.013743882 -0.2759225
-0.1052379 0.26210356 0.15969472 -0.36298683 0.10643884 0.42082945 -0.07931977 0.5232541
0.058935568 -0.17364366 0.10518055 0.023687039 0.09073228 0.16461506 0.31383947 -0.17874093
0.043969877 -0.050762285 -0.2710129 0.034006767 -0.0989983 -0.092793055 0.089174934 0.13629934
0.30642 -0.33198977 -0.074236095 -0.12286295 0.12875852 -0.057274915 -0.154459 -0.25685245
-0.2947941 0.07286496 0.20681399 0.04227045 -0.0060944925 0.39699376 -0.0020313067 -0.25681672
-0.30734372 -0.28842273 -0.2474657 -0.31710157 0.14047761 -0.3687396 0.1986141 0.07577585
0.005591193 -0.0013214543 0.0073185153 -0.016558034 0.1776767 -0.1643865 -0.1689876 -0.112231605
0.09948378 -0.03419195 0.1834202 -0.57016724 -0.37939528 0.19246504 0.30127013 -0.332271
0.06339536 0.15757209 0.28289148 -0.412954 0.10489384 -0.3891431 0.00055254385 0.32625684
-0.050323505 -0.4056728 -0.17839073 -0.3591039 0.09057874 0.23036665 -0.11616293 -0.25260064
0.36825404 -0.2640045 0.1792187 -0.02449922 -0.004625924 -0.24012883 -0.032904405 -0.16978146
-0.0662247 0.01669696 0.04684788 0.043706138 -0.12702689 0.2482079 -0.07203326 0.069779694
-0.09796173 -0.08216813 -0.02538018 -0.026769722 0.104003124 -0.04889962 -0.09690552 0.31025887
0.35432222 0.13388133 0.08293454 0.23419927 -0.2990936 0.27231103 0.08275627 -0.289574
-0.2843853 -0.013463485 -0.16950308 -0.35586563 -0.27621204 -0.16712303 -0.20485716 0.094010696
-0.05592099 0.012569004 0.037514485 0.07423047 0.014009181 -0.3277984 0.08836432 0.16744827
0.38935027 -0.017770777 0.22561093 -0.11354152 -0.008825574 -0.2615797 0.032279573 -0.3110815
-0.2715499 0.021328991 -0.057235338 0.27181697 -0.35917673 0.004733799 0.023288073 -0.17030852
-0.14297237 0.1491307 -0.3125354 -0.5101838 -0.06617994 0.04422799 0.25037867 -0.22175899
0.006639301 -0.0067096367 0.15410456 -0.09528788 -0.22868578 0.031669658 0.35545456 0.044231445
0.15298454 -0.09640205 -0.16241433 0.38621825 0.13119557 -0.088968635 0.018529523 -0.33255625
-0.1289095 -0.20494197 0.08272327 0.14947362 -0.1894177 0.30709597 -0.10026899 -0.2736605
-0.018570941 -0.3243939 -0.3319888 -0.1245424 0.022471687 0.13486877 0.16159022 -0.35442105
-0.32993144 0.14005496 -0.21130235 0.13930435 -0.15983988 -0.03550271 -0.21213862 -0.14430328
0.19235966 -0.3698671 0.13400693 0.036755614 -0.18782224 0.03464467 0.35150945 -0.10913559
0.045938782 -0.05904015 0.21909705 0.22241092 -0.1834289 0.28526837 0.014260498 0.3149124
-0.22707099 0.23302369 0.062187638 -0.41734645 -0.13242342 -0.16444488 0.012523431 -0.17520252

fc2.bias f4 [64]
00000000: 3bc2 773e a78c 2d3e cde5 033e e7ee 563e
00000010: 8c86 123e 0f46 9e3d a130 073d 99d9 f43c
00000020: e776 ed3d 7041 103d 1902 7c3e 9f07 a23d
00000030: 71cd 1c3e 72ac 7c3d a53a 193e 08c6 a83c
00000040: a955 453e a36f 903d dead 163e b709 423e
00000050: a13f 173d 2788 fe3d 1087 0a3e d4fe 253e
00000060: 2b04 683e 5360 4a3e 3c7b 093e c866 b33d
00000070: bb92 4d3d b428 c53d 0e00 123e 4e78 ca3c
00000080: 00fd 683e 7131 5d3e ef43 de3d 1ab9 293e
00000090: a001 383e 4105 803e 2b90 993d b68e 533e
000000a0: 03fd 963d c143 e23d 8b56 eb3d 61a1 033d
000000b0: e1c7 423e 63a9 903d 10d4 083b 5854 ec3d
000000c0: 0cda f13d fb68 ca3d dea5 ce3c fd6a 553e
000000d0: 9f8c 233e d4a9 bf3d 794d 913d dedf 0c3d
000000e0: d0fb c33d 2a71 b93d 2649 7c3c d468 e03d
000000f0: 3516 ba3c dade 443d d12f d83c b057 bd3d
0.24195187 0.16948186 0.12880631 0.20989572 0.14309138 0.07728206 0.03300536 0.029888915
0.115949444 0.035218656 0.24610175 0.0791161 0.15312745 0.061687894 0.14963777 0.020602241
0.19270958 0.07052543 0.14714763 0.18949018 0.036925916 0.12428313 0.13528085 0.1621049
0.2265784 0.19763307 0.13425916 0.08759838 0.05018876 0.09626904 0.14257833 0.024715569
0.22752762 0.21600892 0.10852801 0.16574517 0.1796937 0.25004008 0.07498201 0.20659909
0.07372477 0.11048079 0.11491116 0.032136325 0.1902156 0.07063558 0.0020878352 0.11539525
0.11809167 0.09883305 0.025225576 0.20841594 0.15971611 0.09358564 0.07094855 0.034393184
0.09569514 0.090547875 0.015398299 0.109574944 0.022715667 0.04806409 0.026389988 0.09245241

fc3.weight f4 [10, 64]
00000000: 3550 4bbf 580b 213f d540 c93e 8f7e be3e
00000010: f2d6 e4be 97ce d53e cc50 433e 56f5 cdbe
00000020: d8c8 ba3e c0cc 5a3f ab91 be3d 18e0 2a3f
00000030: fd5c 34bd 6f44 b73e 219c 08bf 1fc3 49bf
00000040: 8d7b 35bf 348f d53e 7fc6 2fbf ba38 62be
00000050: a3fa 28bf a64c 81be 5790 303c 882b 07bf
00000060: 2e86 29bf b622 0fbf f7d3 ac3e 2c77 503c
00000070: 30bb babe b882 d7be e16c c1be 9666 ae3e
00000080: eaa1 5fbf 9a19 e7be 27fb 3fbf 5574 a7bd
00000090: c87f 1ebe c9c6 04be 2fc2 a0be 3b03 cb3e
000000a0: 6a61 9dbe d6ce e63e fa22 1ebf 3c4d a2be
000000b0: ca55 433b 061e aebe a20d 423e 2b87 b7bd
000000c0: d027 a93e f1c3 2bbf dac9 083d d501 d0be
000000d0: 4e86 06bf bb56 0d3f 4e5a 0d3f 48b8 053d
000000e0: f70d 50bf f861 253f aaf8 e9be 5aa9 87be
000000f0: f15d 183f 3607 903e 2392 afbe c16c 19bf
00000100: 4bbd 50be 1a2b 083f c171 aabe b3b2 eabe
00000110: 52dc 90be da27 1c3f 46d4 a4be d17d 5a3e
00000120: 2d65 e33e 8938 243c 1060 93bf 50ed 9c3e
00000130: 7e62 003f 29d3 3ebd f15e d73e 9bd4 b13f
00000140: 2046 1abf adbf bf3d 9213 083f 5a58 9f3e
00000150: d0b3 c6bd 6732 0b3f fc8a 43be dcea 013f
00000160: 5b89 56be 476f 2b3f 720e a6bf 0993 3cbf
00000170: 708d 66be 35df 3b3e eaa8 a03e 2a0e ed3d
00000180: 4fe2 0abe 7dd7 01bf 619e ba3e 303b 60bf
00000190: 812f 0d3f dcb4 fbbe 3f5f 153f f90c a3be
000001a0: c18a be3e be8e 4cbf b3e1 14bf e166 69bd
000001b0: 80d3 50bf 2041 6e3f 8685 81bf 11d0 fc3e
000001c0: 209f 3fbf ebf2 483e ab77 fbbd 7c60 62bf
000001d0: df4b a33e 5f03 1f3f e74e a9be 069e 81bf
000001e0: 0589 ccbe 68e0 323f 58df 823e 24f6 c13e
000001f0: a112 1a3f 69b8 f73e 029d d13e 24d4 bbbe
00000200: 42ef ffbe ae6c 033f 6f9b 24bf 4e6f 36bf
00000210: 2720 f93d cd40 e53e 632e babc bfed 8cbf
00000220: 3b2b 45bd 2386 96be 57a4 d9be fb81 fabe
00000230: 9789 a0be f61f 1dbe 60de 55be 1233 1a3f
00000240: 2cf5 043f f4e6 f23e 2f68 5fbe 5270 15bf
00000250: f075 dabe e04d 5abe a2ec bebe 99d2 2ebf
00000260: 7622 d63e 529c 943e 651b 8ebe d744 05bf
00000270: df52 783c 00af 4d3f 2e79 ad3e e85d 0c3f
00000280: 7e29 833d 5d4f 05bf d3ec 913a 6fb3 e03e
00000290: 2604 2c3e 5d65 d93e 543a 1b3e a0e4 86be
000002a0: f612 d43e 9cb5 183f 4f76 cbbe e469 9bbe
000002b0: 094f 89bf afdc 81bd 96cb 2cbe c16d d0bc
000002c0: 6919 ca3e 9511 a93e 497e 773d 42c6 023f
000002d0: a5ae 0e3f 959d 89bd 1a65 f13d d028 3fbf
000002e0: a339 063e 91a7 563f 981d cbbe d479 29bf
000002f0: 0797 ecbe 3f31 063f d99d 68be 5865 373d
00000300: 569d 31be 09df 543d 8e2f e6be 2e16 febe
00000310: a7df 44bf 2cc8 4d3e 10f0 7cbf cd59 32bf
00000320: f9d8 163f e1e5 613c 81dd 85bf 0169 453f
00000330: a88c 6cbf aed8 093f 5a30 663e 2443 eebe
00000340: 6a5c d93e 3ba2 efbe ea70 bd3e f0f8 8e3e
00000350: 4b68 debc de8e 34bd b78b 9d3c 11f5 c5bd
00000360: d162 3c3e a37c 3fbc 3e11 803e 9965 e4be
00000370: 23d1 c13e 7dc5 1a3f 4416 243e 4e87 afbd
00000380: 88dd d73e 1b28 223f 69e4 fbbe 305b e83e
00000390: 26f1 76be 99fa 4b3f f14a 8b3e 5a19 c83e
000003a0: cfb0 9abe 36fb 833e 57d4 abbe ffd6 a33e
000003b0: 6af4 35bf 3742 3c3f a91d 9fbe 5298 043f
000003c0: 67b1 ccbe 5777 b03e 6fce 89be ef15 d23e
000003d0: d5f2 10bf a2bc e3bd 13ef e5be 0488 b3bf
000003e0: d1a3 17be ae6a 92bd 2899 c93d 7aa3 67bf
000003f0: e68e 07bf 389c 7bbf 2d11 b93e 28b4 0b3f
-0.7941926 0.62907934 0.39307275 0.37205932 -0.4469524 0.41759178 0.1907379 -0.4022624
0.36481357 0.85468674 0.09305128 0.6674819 -0.044033993 0.35794398 -0.53363234 -0.78813356
-0.7089165 0.41710818 -0.68662256 -0.22091952 -0.6600744 -0.2525379 0.010776601 -0.528008
-0.66220367 -0.5591234 0.33755466 0.012723725 -0.36470938 -0.42091918 -0.3777838 0.34062642
-0.87356436 -0.4513672 -0.74992603 -0.081764854 -0.15478432 -0.12966456 -0.3139815 0.39650902
-0.30738384 0.45079678 -0.6177212 -0.3169955 0.0029805773 -0.3400728 0.18950513 -0.08961328
0.33038187 -0.6709586 0.033395626 -0.40626398 -0.5254868 0.55210465 0.5521592 0.032646447
-0.8127131 0.64602613 -0.45697528 -0.26496392 0.59518343 0.28130502 -0.3429118 -0.5993157
-0.2038471 0.5319077 -0.33289912 -0.45839462 -0.2829309 0.6099831 -0.32193202 0.21337058
0.44413128 0.010023245 -1.1513691 0.30649805 0.5015029 -0.046588097 0.42064622 1.3893007
-0.6026325 0.09362731 0.5315486 0.31122094 -0.09702265 0.5437378 -0.19095987 0.5074899
-0.20950834 0.6696667 -1.2973158 -0.7366186 -0.22514892 0.18346865 0.3137887 0.11574967
-0.13562892 -0.50719434 0.3644896 -0.8759031 0.5515061 -0.49161422 0.5834846 -0.31845835
0.37215236 -0.7990531 -0.5815689 -0.05698288 -0.81572723 0.9306812 -1.0118873 0.49377492
-0.7485218 0.19623916 -0.12278684 -0.88428473 0.31893823 0.6211452 -0.3306801 -1.012635
-0.39948288 0.69873667 0.25561023 0.37883103 0.60184675 0.4838288 0.409401 -0.36685288
-0.49987227 0.5133771 -0.6429967 -0.7126359 0.12164336 0.44776002 -0.022727197 -1.1010054
-0.04813693 -0.29399213 -0.42508194 -0.48927292 -0.31354973 -0.15344223 -0.2088561 0.6023418
0.519366 0.47441828 -0.21817087 -0.5837451 -0.42668104 -0.2131877 -0.37289912 -0.68290097
0.41823167 0.29025513 -0.27755275 -0.52058166 0.015156477 0.80345154 0.33881515 0.5483079
0.064043984 -0.52074224 0.0011133201 0.43886897 0.16798458 0.42460147 0.15158969 -0.26346302
0.41420716 0.59652114 -0.397387 -0.30354226 -1.0727245 -0.0634092 -0.16874537 -0.02544296
0.3947251 0.33021227 0.06042317 0.5108377 0.55735236 -0.067195095 0.11786862 -0.7467165
0.13107924 0.83849436 -0.39671016 -0.6620152 -0.46208975 0.52418894 -0.22716464 0.044774383
-0.17345175 0.051970515 -0.44958156 -0.49626297 -0.76903766 0.20095891 -0.98803806 -0.69668275
0.58924824 0.013787718 -1.0458223 0.7711335 -0.92402124 0.5384625 0.22479382 -0.465356
0.4245332 -0.4680346 0.3700021 0.279243 -0.02714934 -0.04408156 0.01923166 -0.09665883
0.1839707 -0.011687431 0.25013155 -0.44608763 0.3785487 0.60457593 0.16024119 -0.08570729
0.42161202 0.63342446 -0.491977 0.4538207 -0.24115428 0.79679257 0.27205613 0.39081842
-0.3021302 0.25777596 -0.3356044 0.31999967 -0.7107607 0.73538536 -0.31077316 0.5179492
-0.39979097 0.3446605 -0.2691531 0.4103236 -0.5662053 -0.11119963 -0.44908962 -1.4025884
-0.14808585 -0.07149254 0.09843665 -0.9048382 -0.5295242 -0.98285246 0.36145917 0.5457177

fc3.bias f4 [10]
00000000: 1716 c83d 44f3 58be c411 0cbd 650d 093e
00000010: d615 0fbe 07f8 7cbd 1288 8cbd 1fd7 96bd
00000020: b084 213d 6be8 483e
0.09769838 -0.21186548 -0.03419663 0.13384016 -0.13973173 -0.061759975 -0.06861891 -0.0736525
0.03943318 0.1961991
